stroke_model.tflite (tflite, 3352 bytes, 5 tensors)

arith.constant f4 [1, 8]
00000000: bfc7 7a3f b503 1cbf b9f2 9fbf 8a8f 50bf
00000010: 4b0d 353f 03cf ac3e 206f 683f edc7 723f
0.9796104 -0.60943156 -1.2495948 -0.81469023 0.7072341 0.33751687 0.90794563 0.9483631

arith.constant1 f4 [8, 16]
00000000: 2589 ad3e 0c15 99bf 90fd c13e eb69 74be
00000010: a223 ecbe f0a4 0abe 8845 cdbe dc25 293e
00000020: b0ba 9bbf 8dc2 c1bd afe5 c73e b3fc 7ebf
00000030: f66d 303f 50d3 81bf 63f5 033e 10bb 8ebe
00000040: 8a8c ddbf a092 7f3f fb87 e63d 27be f03e
00000050: 1615 323f 5725 88be 8461 b13e 7746 c43e
00000060: 33bf fa3e 56af 283e c727 ad3d 8847 b83e
00000070: b3a2 2f3e bb59 0c3f 3c5e dbbe c801 7b3f
00000080: e0c7 d3bf bb6c aa3e 0481 f9be 7aea 0a3f
00000090: d753 ed3e 6f25 07bf dc2f e23e 32c9 b1be
000000a0: 66a1 243f 57c0 fc3e 514e 073f daa4 8a3f
000000b0: 5544 953e 6e24 883f 4ea6 1dbe d1d1 163f
000000c0: aa3b e3bf f99f 263f 43e6 7e3d 319e 673e
000000d0: e8b4 8e3d 48ac 813e b284 7e3e aa47 b53e
000000e0: 42cf 493f 856d 203f d222 5e3d 0f2a 143f
000000f0: c386 8abe f16e 363f 5b09 7fbe d0fd 343f
00000100: 566d 483e eee3 d43d dfdc 12be 208d bfbd
00000110: fdd2 61be d841 33bb 129d 833e 9cda 60be
00000120: ff60 a33e 6aa4 b3be 310d 233e e678 f9be
00000130: d8ab e3be 8872 93be d201 dcbe b941 d83d
00000140: f4e8 0740 2366 0bbe b07c 3fbe bd74 e3be
00000150: 0d44 fcbe cac7 223e 1506 763e 15e0 bdbe
00000160: 2971 f6be 9075 f4bd 8d79 0f3f f516 d0bd
00000170: c87d 153f 40f7 5ebf 472d d63e 6e08 0f3d
00000180: e0aa ca3e f891 60bf 4ecc d43e 763d a6be
00000190: 5155 21bf bc14 e43d 7164 ee3d 17fb 0abd
000001a0: 31fc 7abf c20a 0cbe 9a3d 693e 24f7 43bf
000001b0: 745c 193f 615f d3be 6732 4bbe b036 2bbe
000001c0: 1782 d73e c297 dabf 70c6 8c3e 3e6d 5ebf
000001d0: 9a05 113e 47e2 9e3e 5c0a 06be ada9 853e
000001e0: 955e 34bf d9f2 ef3d d20f 083f ddd1 16be
000001f0: 46af 293f 58d9 8bbf 5545 c3bd 8b20 5dbf
0.33893695 -1.1959548 0.37888765 -0.2386853 -0.46120936 -0.13539481 -0.4009211 0.16518348
-1.2166348 -0.09460936 0.39042422 -0.9960434 0.6891779 -1.0142612 0.12886576 -0.27877092
-1.7308514 0.99833107 0.11256405 0.47020075 0.69563425 -0.26590988 0.3464471 0.3833501
0.48973998 0.16473135 0.084548526 0.35992074 0.17151909 0.5482442 -0.42845333 0.9804959
-1.6545372 0.3328608 -0.48731244 0.5426403 0.46353027 -0.52791494 0.4417714 -0.34723812
0.64308774 0.49365494 0.52853876 1.0831559 0.29153696 1.0636117 -0.15395471 0.58913904
-1.7752583 0.6508785 0.062231313 0.22618939 0.06968099 0.25326753 0.24855307 0.35406238
0.78831875 0.62667114 0.054232426 0.57876676 -0.2705594 0.71263033 -0.24905913 0.7069979
0.19572958 0.10395037 -0.14342068 -0.09353089 -0.22053142 -0.0027352478 0.25705773 -0.21958393
0.3190994 -0.35086375 0.15923001 -0.4872505 -0.44467044 -0.28798318 -0.4297014 0.105594106
2.1235933 -0.13613181 -0.18699908 -0.44425002 -0.4927067 0.15896526 0.24025758 -0.37085024
-0.4813321 -0.11936486 0.56044847 -0.10160629 0.5839505 -0.87096024 0.4183142 0.03492015
0.39583492 -0.8772273 0.41562122 -0.32468766 -0.6302081 0.11136767 0.116402514 -0.033930864
-0.98041064 -0.13675979 0.22777405 -0.7654898 0.599067 -0.41283706 -0.19843446 -0.1672008
0.42091438 -1.7077563 0.27495146 -0.8688544 0.14162293 0.3103201 -0.1308989 0.26106015
-0.7045682 0.117162414 0.5314914 -0.14728494 0.6628307 -1.0925703 -0.095347084 -0.8637778

sequential_1/dense_1_2/BiasAdd/ReadVariableOp f4 [8]
00000000: e6da fd3d d8d1 533e 81f4 3d3e 0a14 243e
00000010: 94d5 cdbd 24e7 3f3e b2de 453d 6ee3 b2bd
0.12395267 0.20685518 0.18550302 0.1602327 -0.100505024 0.18740517 0.048308082 -0.08734785

sequential_1/dense_1/BiasAdd/ReadVariableOp f4 [16]
00000000: 0c8d 03be ba0e 063e d915 87bd 6f1c 9f3e
00000010: 801c 523e 68c1 883b 9bfd 3e3e 9d0f 7ebd
00000020: aa0d f5bd 7c65 473d 1cb7 5f3e 0f91 f73e
00000030: 4ae5 cd3d dad5 0c3e 5d8e 0f3c f83a ce3e
-0.12846774 0.13091555 -0.06595964 0.3107638 0.20518684 0.0041734464 0.1865143 -0.06202661
-0.11965497 0.048680767 0.21847194 0.48352858 0.10053499 0.13753453 0.008761969 0.40279365

sequential_1/dense_1/MatMul f4 [16, 10]
00000000: 9a3e 93bf fe8f 15be 8ed5 1ebd cd89 b43e
00000010: ef46 90bf a453 6f3f 0681 b13e 4733 b4bf
00000020: 4d47 ae3e 4518 d2be 4a35 3b3e 4e5e 1dbf
00000030: d50c 20bd aa12 653d f345 70be 3fd3 7d3f
00000040: a76d 1f3d 3f2c 4b3e ee08 babe 4a38 b2bd
00000050: 8cd9 a73b 9cc7 0e3f 6a45 6ebe cdcc da3d
00000060: 6031 833e bf67 903e 4391 1cbd d10a 863d
00000070: 2541 89bd e7eb 153f db17 08bf 9987 d7be
00000080: 073b 143e d0bd e43d 7dac 87be b00e d93e
00000090: 80a3 913e fae2 153f 2031 a5be ca8f 93bd
000000a0: 5f1f 293e 6b3d 06bf c74d e13d 2f25 9f3e
000000b0: 5e54 673e 0a1f a9be ee20 d13d 33be 95be
000000c0: a15f 6abe bd64 1e3f 9db1 d13e ff34 1d3e
000000d0: 3885 003f 079c a13e 5dea 6f3e 145a 073e
000000e0: 1e81 cbbe f9e8 c93e 06fb b13c d4b4 b7be
000000f0: 569d e1be 9fe2 92be 5aec ecbe a498 c8be
00000100: 4796 353e 5f17 f23e 4db7 f33e 9dc1 6bbe
00000110: 8c22 6abe 0d2f ce3d 2add e83e 1c7a a4be
00000120: bd0a 333e e7cf 503f 6cd3 543e 5a7a da3d
00000130: 22ea fd3d 0a9c 373f 998e 53bc e281 8c3e
00000140: 7d62 983a a931 9fbe 1b0a 1ebb 4a86 213f
00000150: 81e3 8a3e 3760 1e3f 42d3 183d 6ead 0fbf
00000160: b5fa 6cbf d985 34be 70d0 853f b65d 03bd
00000170: 3c94 4d3e dd61 0dbf 3945 d03e 94dd 8e3e
00000180: 3155 d6bd 1cda 1ebe 0214 b53e 1790 07bf
00000190: 60b6 133e 7cfd 783e 8c64 6bbe 203f 2dbe
000001a0: 36e1 8bbc 592d cebd aebb 323f 652c e4bc
000001b0: 62c3 073e 8872 193f aa6e d9be d412 18bf
000001c0: a16f 71be 8bbc 2c3e f824 9dbe c6f0 843d
000001d0: 3488 60be c38f 893e 49ca 5c3f 7a4f 683d
000001e0: 9c65 343f 1ab2 413f 00bc 84be 1f73 473e
000001f0: 4cb0 76be 6a9c b83e 9e88 de3e fb3c 753d
00000200: 1dd1 a4be 060c 0f3f a817 7b3f 8305 ddbe
00000210: 9b3d 49bd 5730 bcbe a7bd 653e 9ed3 88bf
00000220: 9768 7f3c 7ae4 d83d 7db8 8cbe 067b 9c3e
00000230: 3be6 3c3d cdd5 003f 86b1 87bd 4c5f 883e
00000240: 884e a5bd 9549 003e e665 ad3e 6f0f 22be
00000250: d21f 5cbe aac4 a43e 600a 683d 1d8a 7dbe
00000260: a6cf c7be a6ff b6bd 4328 e8bc b677 583e
00000270: 9eaa 093d e6a5 fabe 2a46 133e 4326 e43e
-1.150348 -0.1460571 -0.03877788 0.35261384 -1.1271647 0.93487 0.3466875 -1.4078149
0.34038773 -0.4103414 0.18282047 -0.6147202 -0.039074738 0.055926003 -0.23464184 0.9915046
0.038922932 0.19841097 -0.36334938 -0.087021425 0.005122369 0.5577333 -0.23268667 0.10683594
0.25623608 0.28204152 -0.03822447 0.06545032 -0.067018785 0.58563083 -0.531614 -0.4209564
0.14475642 0.11169016 -0.26498786 0.42394018 0.28445053 0.58549464 -0.32264042 -0.0720516
0.16515873 -0.52437466 0.11001163 0.31083056 0.22590777 -0.33031493 0.10211359 -0.29246673
-0.22888042 0.61872464 0.4095582 0.15352248 0.50203276 0.31564352 0.23429246 0.13217956
-0.39746946 0.39435557 0.021726143 -0.35880148 -0.4406535 -0.28688523 -0.46274072 -0.39178956
0.17733108 0.47283456 0.47600785 -0.23023076 -0.22864741 0.10067568 0.45481235 -0.32124412
0.17484565 0.81567234 0.20783776 0.10667868 0.12398173 0.7172247 -0.012912416 0.27442843
0.0011626031 -0.31092575 -0.002411491 0.63095534 0.27126697 0.6186556 0.037310846 -0.5612401
-0.9257005 -0.17629184 1.0454235 -0.03207179 0.20076078 -0.5522745 0.40677813 0.27903426
-0.10465468 -0.1551289 0.35366827 -0.5295424 0.1442504 0.24315447 -0.22987574 -0.16918612
-0.017075162 -0.10067243 0.69817626 -0.0278532 0.13258126 0.59940386 -0.42467242 -0.5940373
-0.2357774 0.16868798 -0.30692267 0.064912364 -0.21926957 0.26867494 0.8624616 0.05671642
0.70467544 0.75662386 -0.25924683 0.19477509 -0.2409069 0.36056834 0.43463606 0.05987261
-0.3219079 0.5587772 0.9808297 -0.43168268 -0.049131017 -0.3675563 0.22435628 -1.068958
0.015588901 0.105904534 -0.27484503 0.3056261 0.046118002 0.50326234 -0.06625657 0.26635206
-0.08071619 0.1252807 0.33866805 -0.158262 -0.21496513 0.32181293 0.05665052 -0.24759717
-0.3902561 -0.0893548 -0.02833951 0.21139416 0.03360998 -0.48954695 0.14382234 0.4456044
